…
ze, channels, height, width].\\n\\n        Returns:\\n            torch.Tensor: Output tensor with logits for each class, shape [batch_size, num_classes].\\n        \"\"\"\\n        # Input: [batch_size, in_channels, img_height, img_width]\\n        # Example: [1, 3, 128, 128]\\n\\n        for i, conv_block in enumerate(self.conv_layers):\\n            x = conv_block(x)\\n            # After Conv2d(k=3, p=1) and MaxPool2d(k=2, s=2):\\n            # [batch, C_in, H, W] -> [batch, C_out, H/2, W/2]\\n            # Example (assuming initial [1, 3, 128, 128]):\\n            # Block 0 (filters=32): [1, 3, 128, 128] -> [1, 32, 64, 64]\\n            # Block 1 (filters=64): [1, 32, 64, 64] -> [1, 64, 32, 32]\\n            # Block 2 (filters=128): [1, 64, 32, 32] -> [1, 128, 16, 16]\\n            # Block 3 (filters=256): [1, 128, 16, 16] -> [1, 256, 8, 8]\\n\\n        # Flatten the output of convolutional layers\\n        # [batch, last_conv_filters, H_final, W_final] -> [batch, flattened_features_dim]\\n        # Example: [1, 256, 8, 8] -> [1, 256 * 8 * 8] = [1, 16384]\\n        x = torch.flatten(x, 1)\\n\\n        # Fully Connected Layers\\n        for i, fc_block in enumerate(self.fc_layers):\\n            x = fc_block(x)\\n            # [batch, in_features] -> [batch, hidden_dim]\\n            # Example (assuming fc_hidden_dims=[512]):\\n            # FC Block 0: [1, 16384] -> [1, 512]\\n\\n        # Output layer\\n        # [batch, last_fc_hidden_dim] -> [batch, num_classes]\\n        # Example: [1, 512] -> [1, 2]\\n        x = self.output_layer(x)\\n        return x\\n\\nif __name__ == \"__main__\":\\n    print(\"Running smoke test for DeepFakeDetector...\")\\n\\n    # Model instantiation with default parameters\\n    model = DeepFakeDetector()\\n    print(f\"Model architecture:\\n{model}\")\\n\\n    # Create a dummy input tensor\\n    # Batch size = 4, 3 channels (RGB), 128x128 image\\n    dummy_
…
